Model loaded successfully.
Input Shape: (None, 160, 160, 3)
Model: "functional"
+--------------------------------------------------------------------------+
| Layer (type)                    | Output Shape           |       Param # |
|---------------------------------+------------------------+---------------|
| input_layer_1 (InputLayer)      | (None, 160, 160, 3)    |             0 |
|---------------------------------+------------------------+---------------|
| efficientnetb4 (Functional)     | (None, 5, 5, 1792)     |    17,673,823 |
|---------------------------------+------------------------+---------------|
| global_average_pooling2d        | (None, 1792)           |             0 |
| (GlobalAveragePooling2D)        |                        |               |
|---------------------------------+------------------------+---------------|
| dropout (Dropout)               | (None, 1792)           |             0 |
|---------------------------------+------------------------+---------------|
| dense (Dense)                   | (None, 39)             |        69,927 |
+--------------------------------------------------------------------------+
 Total params: 52,807,318 (201.44 MB)
 Trainable params: 17,531,783 (66.88 MB)
 Non-trainable params: 211,967 (828.00 KB)
 Optimizer params: 35,063,568 (133.76 MB)
